nc: 80

backbone:
  - [-1, 1, EfficientNetBackbone, ["efficientnet_b3", True, [2, 3, 4]]]

head:
  - [-1, 1, Adapter, [1280, 256]]
  - [-1, 1, FABlock, [256]]
  - [-1, 1, MyHGBlock, [256, 256, 3, 1]]
  - [-1, 1, SPDADown, [384]]
  - [-1, 1, FABlock, [384]]
  - [-1, 1, MyHGBlock, [384, 384, 3, 1]]
  - [-1, 1, Adapter, [512, 256]]
  - [-1, 1, DropBlock, [0.1]]
  - [-1, 1, nn.Upsample, [None, 2, "nearest"]]
  - [[-1, 5], 1, Concat, [1]]
  - [-1, 1, Adapter, [640, 384]]
  - [-1, 1, FABlock, [384]]
  - [-1, 1, CBAM, [384]]
  - [-1, 1, nn.Upsample, [None, 2, "nearest"]]
  - [[-1, 2], 1, Concat, [1]]
  - [-1, 1, Adapter, [640, 256]]
  - [-1, 1, FABlock, [256]]
  - [-1, 1, CBAM, [256]]
  - [-1, 1, SPDADown, [256]]
  - [[-1, 11], 1, Concat, [1]]
  - [-1, 1, Adapter, [640, 384]]
  - [-1, 1, FABlock, [384]]
  - [-1, 1, CBAM, [384]]
  - [-1, 1, SPDADown, [384]]
  - [[-1, 7], 1, Concat, [1]]
  - [-1, 1, Adapter, [640, 512]]
  - [-1, 1, FABlock, [512]]
  - [-1, 1, CBAM, [512]]
  - [-1, 1, ASPP, [512, [1, 6, 12, 18]]]
  - [-1, 1, SPPF, [512, 5]]
  - [18, 1, Adapter, [256, 96]]
  - [23, 1, Adapter, [384, 160]]
  - [30, 1, Adapter, [512, 192]]
  - [[31, 32, 33], 1, Detect, [nc]]
